…
To enable the following instructions: SSE3 SSE4.1 SSE4.2 AVX AVX2 FMA, in other operations, rebuild TensorFlow with the appropriate compiler flags.
[2025-12-05 17:28:54] [INFO] [cnn_model.py:96] - CNN model created successfully
[2025-12-05 17:28:54] [INFO] [cnn_model.py:97] - Model architecture summary:
[2025-12-05 17:28:54] [INFO] [cnn_model.py:100] - Model: "urdu_cnn_model"
┏━━━━━━━━━━━━━━━━━━━━━━━━━━━━━━━━━━━━━━┳━━━━━━━━━━━━━━━━━━━━━━━━━━━━━┳━━━━━━━━━━━━━━━━━┓
┃ Layer (type)                         ┃ Output Shape                ┃         Param # ┃
┡━━━━━━━━━━━━━━━━━━━━━━━━━━━━━━━━━━━━━━╇━━━━━━━━━━━━━━━━━━━━━━━━━━━━━╇━━━━━━━━━━━━━━━━━┩
│ input_layer (InputLayer)             │ (None, 64, 64, 1)           │               0 │
├──────────────────────────────────────┼─────────────────────────────┼─────────────────┤
│ conv1 (Conv2D)                       │ (None, 64, 64, 32)          │             320 │
├──────────────────────────────────────┼─────────────────────────────┼─────────────────┤
│ bn1 (BatchNormalization)             │ (None, 64, 64, 32)          │             128 │
├──────────────────────────────────────┼─────────────────────────────┼─────────────────┤
│ relu1 (Activation)                   │ (None, 64, 64, 32)          │               0 │
├──────────────────────────────────────┼─────────────────────────────┼─────────────────┤
│ pool1 (MaxPooling2D)                 │ (None, 32, 32, 32)          │               0 │
├──────────────────────────────────────┼─────────────────────────────┼─────────────────┤
│ dropout1 (Dropout)                   │ (None, 32, 32, 32)          │               0 │
├──────────────────────────────────────┼─────────────────────────────┼─────────────────┤
│ conv2 (Conv2D)                       │ (None, 32, 32, 64)          │          18,496 │
├──────────────────────────────────────┼─────────────────────────────┼─────────────────┤
│ bn2 (BatchNormalization)             │ (None, 32, 32, 64)          │             256 │
├──────────────────────────────────────┼─────────────────────────────┼─────────────────┤
│ relu2 (Activation)                   │ (None, 32, 32, 64)          │               0 │
├──────────────────────────────────────┼─────────────────────────────┼─────────────────┤
│ pool2 (MaxPooling2D)                 │ (None, 16, 16, 64)          │               0 │
├──────────────────────────────────────┼─────────────────────────────┼─────────────────┤
│ dropout2 (Dropout)                   │ (None, 16, 16, 64)          │               0 │
├──────────────────────────────────────┼─────────────────────────────┼─────────────────┤
│ conv3 (Conv2D)                       │ (None, 16, 16, 128)         │          73,856 │
├──────────────────────────────────────┼─────────────────────────────┼─────────────────┤
│ bn3 (BatchNormalization)             │ (None, 16, 16, 128)         │             512 │
├──────────────────────────────────────┼─────────────────────────────┼─────────────────┤
│ relu3 (Activation)                   │ (None, 16, 16, 128)         │               0 │
├──────────────────────────────────────┼─────────────────────────────┼─────────────────┤
│ pool3 (MaxPooling2D)                 │ (None, 8, 8, 128)           │               0 │
├──────────────────────────────────────┼─────────────────────────────┼─────────────────┤
│ dropout3 (Dropout)                   │ (None, 8, 8, 128)           │               0 │
├──────────────────────────────────────┼─────────────────────────────┼─────────────────┤
│ conv4 (Conv2D)                       │ (None, 8, 8, 256)           │         295,168 │
├──────────────────────────────────────┼─────────────────────────────┼─────────────────┤
│ bn4 (BatchNormalization)             │ (None, 8, 8, 256)           │           1,024 │
├──────────────────────────────────────┼─────────────────────────────┼─────────────────┤
│ relu4 (Activation)                   │ (None, 8, 8, 256)           │               0 │
├──────────────────────────────────────┼─────────────────────────────┼─────────────────┤
│ pool4 (MaxPooling2D)                 │ (None, 4, 4, 256)           │               0 │
├──────────────────────────────────────┼─────────────────────────────┼─────────────────┤
│ dropout4 (Dropout)                   │ (None, 4, 4, 256)           │               0 │
├──────────────────────────────────────┼─────────────────────────────┼─────────────────┤
│ flatten (Flatten)                    │ (None, 4096)                │               0 │
├──────────────────────────────────────┼─────────────────────────────┼─────────────────┤
│ dense1 (Dense)                       │ (None, 512)                 │       2,097,664 │
├──────────────────────────────────────┼─────────────────────────────┼─────────────────┤
│ bn_dense1 (BatchNormalization)       │ (None, 512)                 │           2,048 │
├──────────────────────────────────────┼─────────────────────────────┼─────────────────┤
│ relu_dense1 (Activation)             │ (None, 512)                 │               0 │
├──────────────────────────────────────┼─────────────────────────────┼─────────────────┤
│ dropout_dense1 (Dropout)             │ (None, 512)                 │               0 │
├──────────────────────────────────────┼─────────────────────────────┼─────────────────┤
│ dense2 (Dense)                       │ (None, 256)                 │         131,328 │
├──────────────────────────────────────┼─────────────────────────────┼─────────────────┤
│ bn_dense2 (BatchNormalization)       │ (None, 256)                 │           1,024 │
├──────────────────────────────────────┼─────────────────────────────┼─────────────────┤
│ relu_dense2 (Activation)             │ (None, 256)                 │               0 │
├──────────────────────────────────────┼─────────────────────────────┼─────────────────┤
│ dropout_dense2 (Dropout)             │ (None, 256)                 │               0 │
├──────────────────────────────────────┼─────────────────────────────┼─────────────────┤
│ output (Dense)                       │ (None, 10)                  │           2,570 │
└──────────────────────────────────────┴─────────────────────────────┴─────────────────┘
 Total params: 2,624,394 (10.01 MB)
 Trainable params: 2,621,898 (10.00 MB)
 Non-trainable params: 2,496 (9.75 KB)

[2025-12-05 17:28:54] [INFO] [cnn_model.py:119] - Compiling model with learning rate: 0.001
[2025-12-05 17:28:54] [INFO] [cnn_model.py:129] - Model compiled successfully
[2025-12-05 17:28:54] [INFO] [cnn_model.py:151] - Setting up training callbacks
…
